Run : 10-08-2022_16-44-39
Batch size : 10
epochs : 100
final_train_loss : 0.07754167821258307
final_train_accuracy : 0.9749999990065893
final_test_loss : 0.036129810847342014
final_test_accuracy : 1.0
model : IrisClassifier(
  (layer1): Linear(in_features=4, out_features=50, bias=True)
  (layer2): Linear(in_features=50, out_features=50, bias=True)
  (layer3): Linear(in_features=50, out_features=3, bias=True)
  (ReLU): ReLU()
)
optimizer : Adam (
Parameter Group 0
    amsgrad: False
    betas: (0.9, 0.999)
    capturable: False
    eps: 1e-08
    foreach: None
    lr: 0.001
    maximize: False
    weight_decay: 0
)
#####################################################################################
Run : 10-08-2022_16-45-36
Batch size : 10
epochs : 100
final_train_loss : 0.3927304409444332
final_train_accuracy : 0.6916666701436043
final_test_loss : 0.45634160935878754
final_test_accuracy : 0.5999999940395355
model : IrisClassifier(
  (layer1): Linear(in_features=4, out_features=100, bias=True)
  (layer2): Linear(in_features=100, out_features=100, bias=True)
  (layer3): Linear(in_features=100, out_features=3, bias=True)
  (ReLU): ReLU()
)
optimizer : Adam (
Parameter Group 0
    amsgrad: False
    betas: (0.9, 0.999)
    capturable: False
    eps: 1e-08
    foreach: None
    lr: 0.001
    maximize: False
    weight_decay: 0
)
#####################################################################################
Run : 10-08-2022_16-46-34
Batch size : 10
epochs : 100
final_train_loss : 0.3967531931897004
final_train_accuracy : 0.6916666676600774
final_test_loss : 0.46108952164649963
final_test_accuracy : 0.5999999940395355
model : IrisClassifier(
  (layer1): Linear(in_features=4, out_features=35, bias=True)
  (layer2): Linear(in_features=35, out_features=35, bias=True)
  (layer3): Linear(in_features=35, out_features=3, bias=True)
  (ReLU): ReLU()
)
optimizer : Adam (
Parameter Group 0
    amsgrad: False
    betas: (0.9, 0.999)
    capturable: False
    eps: 1e-08
    foreach: None
    lr: 0.001
    maximize: False
    weight_decay: 0
)
#####################################################################################
Run : 10-08-2022_16-47-20
Batch size : 10
epochs : 100
final_train_loss : 1.0986121892929077
final_train_accuracy : 0.32500000732640427
final_test_loss : 1.098612129688263
final_test_accuracy : 0.4000000059604645
model : IrisClassifier(
  (layer1): Linear(in_features=4, out_features=45, bias=True)
  (layer2): Linear(in_features=45, out_features=45, bias=True)
  (layer3): Linear(in_features=45, out_features=3, bias=True)
  (ReLU): ReLU()
)
optimizer : Adam (
Parameter Group 0
    amsgrad: False
    betas: (0.9, 0.999)
    capturable: False
    eps: 1e-08
    foreach: None
    lr: 0.001
    maximize: False
    weight_decay: 0
)
#####################################################################################
Run : 10-08-2022_16-47-52
Batch size : 10
epochs : 100
final_train_loss : 1.0986121892929077
final_train_accuracy : 0.32500000670552254
final_test_loss : 1.098612129688263
final_test_accuracy : 0.4000000059604645
model : IrisClassifier(
  (layer1): Linear(in_features=4, out_features=55, bias=True)
  (layer2): Linear(in_features=55, out_features=55, bias=True)
  (layer3): Linear(in_features=55, out_features=3, bias=True)
  (ReLU): ReLU()
)
optimizer : Adam (
Parameter Group 0
    amsgrad: False
    betas: (0.9, 0.999)
    capturable: False
    eps: 1e-08
    foreach: None
    lr: 0.001
    maximize: False
    weight_decay: 0
)
#####################################################################################
Run : 10-08-2022_16-48-13
Batch size : 10
epochs : 100
final_train_loss : 0.07754167821258307
final_train_accuracy : 0.9749999990065893
final_test_loss : 0.036129810847342014
final_test_accuracy : 1.0
model : IrisClassifier(
  (layer1): Linear(in_features=4, out_features=50, bias=True)
  (layer2): Linear(in_features=50, out_features=50, bias=True)
  (layer3): Linear(in_features=50, out_features=3, bias=True)
  (ReLU): ReLU()
)
optimizer : Adam (
Parameter Group 0
    amsgrad: False
    betas: (0.9, 0.999)
    capturable: False
    eps: 1e-08
    foreach: None
    lr: 0.001
    maximize: False
    weight_decay: 0
)
#####################################################################################
Run : 10-08-2022_16-50-27
Batch size : 10
epochs : 100
final_train_loss : 1.0986121892929077
final_train_accuracy : 0.3250000060846408
final_test_loss : 1.098612129688263
final_test_accuracy : 0.4000000059604645
model : IrisClassifier(
  (layer1): Linear(in_features=4, out_features=50, bias=True)
  (layer2): Linear(in_features=50, out_features=50, bias=True)
  (layer3): Linear(in_features=50, out_features=50, bias=True)
  (layer4): Linear(in_features=50, out_features=3, bias=True)
  (ReLU): ReLU()
)
optimizer : Adam (
Parameter Group 0
    amsgrad: False
    betas: (0.9, 0.999)
    capturable: False
    eps: 1e-08
    foreach: None
    lr: 0.001
    maximize: False
    weight_decay: 0
)
#####################################################################################
Run : 10-08-2022_16-51-16
Batch size : 10
epochs : 100
final_train_loss : 0.44526243085662526
final_train_accuracy : 0.600000003973643
final_test_loss : 0.24448320269584656
final_test_accuracy : 0.800000011920929
model : IrisClassifier(
  (layer1): Linear(in_features=4, out_features=64, bias=True)
  (layer2): Linear(in_features=64, out_features=64, bias=True)
  (layer3): Linear(in_features=64, out_features=64, bias=True)
  (layer4): Linear(in_features=64, out_features=3, bias=True)
  (ReLU): ReLU()
)
optimizer : Adam (
Parameter Group 0
    amsgrad: False
    betas: (0.9, 0.999)
    capturable: False
    eps: 1e-08
    foreach: None
    lr: 0.001
    maximize: False
    weight_decay: 0
)
#####################################################################################
Run : 10-08-2022_16-51-33
Batch size : 10
epochs : 100
final_train_loss : 0.4145781857271989
final_train_accuracy : 0.6916666775941849
final_test_loss : 0.4528522491455078
final_test_accuracy : 0.5999999940395355
model : IrisClassifier(
  (layer1): Linear(in_features=4, out_features=32, bias=True)
  (layer2): Linear(in_features=32, out_features=32, bias=True)
  (layer3): Linear(in_features=32, out_features=32, bias=True)
  (layer4): Linear(in_features=32, out_features=3, bias=True)
  (ReLU): ReLU()
)
optimizer : Adam (
Parameter Group 0
    amsgrad: False
    betas: (0.9, 0.999)
    capturable: False
    eps: 1e-08
    foreach: None
    lr: 0.001
    maximize: False
    weight_decay: 0
)
#####################################################################################
Run : 10-08-2022_16-51-46
Batch size : 10
epochs : 100
final_train_loss : 0.393133573854963
final_train_accuracy : 0.6916666626930237
final_test_loss : 0.4647807627916336
final_test_accuracy : 0.5999999940395355
model : IrisClassifier(
  (layer1): Linear(in_features=4, out_features=128, bias=True)
  (layer2): Linear(in_features=128, out_features=128, bias=True)
  (layer3): Linear(in_features=128, out_features=128, bias=True)
  (layer4): Linear(in_features=128, out_features=3, bias=True)
  (ReLU): ReLU()
)
optimizer : Adam (
Parameter Group 0
    amsgrad: False
    betas: (0.9, 0.999)
    capturable: False
    eps: 1e-08
    foreach: None
    lr: 0.001
    maximize: False
    weight_decay: 0
)
#####################################################################################
Run : 10-08-2022_16-59-35
Batch size : 10
epochs : 100
final_train_loss : 0.4322173446416855
final_train_accuracy : 0.9749999990065893
final_test_loss : 0.4736408442258835
final_test_accuracy : 1.0
model : IrisClassifier(
  (layer1): Linear(in_features=4, out_features=128, bias=True)
  (layer2): Linear(in_features=128, out_features=64, bias=True)
  (layer3): Linear(in_features=64, out_features=3, bias=True)
  (ReLU): ReLU()
)
optimizer : Adam (
Parameter Group 0
    amsgrad: False
    betas: (0.9, 0.999)
    capturable: False
    eps: 1e-08
    foreach: None
    lr: 0.001
    maximize: False
    weight_decay: 0
)
#####################################################################################
Run : 10-08-2022_17-01-41
Batch size : 10
epochs : 100
final_train_loss : 0.7418354054292043
final_train_accuracy : 0.32500000670552254
final_test_loss : 0.6595070362091064
final_test_accuracy : 0.4000000059604645
model : IrisClassifier(
  (layer1): Linear(in_features=4, out_features=64, bias=True)
  (layer2): Linear(in_features=64, out_features=32, bias=True)
  (layer3): Linear(in_features=32, out_features=3, bias=True)
  (ReLU): ReLU()
)
optimizer : Adam (
Parameter Group 0
    amsgrad: False
    betas: (0.9, 0.999)
    capturable: False
    eps: 1e-08
    foreach: None
    lr: 0.001
    maximize: False
    weight_decay: 0
)
#####################################################################################
Run : 10-08-2022_18-02-14
Batch size : 10
epochs : 100
final_train_loss : 0.39192291845877963
final_train_accuracy : 0.6833333348234495
final_test_loss : 0.4508701115846634
final_test_accuracy : 0.5999999940395355
model : IrisClassifier(
  (layer1): Linear(in_features=4, out_features=50, bias=True)
  (layer2): Linear(in_features=50, out_features=50, bias=True)
  (layer3): Linear(in_features=50, out_features=3, bias=True)
  (ReLU): ReLU()
)
optimizer : Adam (
Parameter Group 0
    amsgrad: False
    betas: (0.9, 0.999)
    capturable: False
    eps: 1e-08
    foreach: None
    lr: 0.01911105
    maximize: False
    weight_decay: 0
)
#####################################################################################
Run : 10-08-2022_18-09-05
Batch size : 10
epochs : 100
final_train_loss : 0.41070370376110077
final_train_accuracy : 0.8999999910593033
final_test_loss : 0.41339458525180817
final_test_accuracy : 0.875
model : IrisClassifier(
  (layer1): Linear(in_features=4, out_features=50, bias=True)
  (layer2): Linear(in_features=50, out_features=50, bias=True)
  (layer3): Linear(in_features=50, out_features=3, bias=True)
  (ReLU): ReLU()
)
optimizer : Adam (
Parameter Group 0
    amsgrad: False
    betas: (0.9, 0.999)
    capturable: False
    eps: 1e-08
    foreach: None
    lr: 0.0001
    maximize: False
    weight_decay: 0
)
#####################################################################################
Run : 10-08-2022_18-11-55
Batch size : 10
epochs : 100
final_train_loss : 0.39643071343501407
final_train_accuracy : 0.6833333348234495
final_test_loss : 0.450184628367424
final_test_accuracy : 0.5999999940395355
model : IrisClassifier(
  (layer1): Linear(in_features=4, out_features=50, bias=True)
  (layer2): Linear(in_features=50, out_features=50, bias=True)
  (layer3): Linear(in_features=50, out_features=3, bias=True)
  (ReLU): ReLU()
)
optimizer : Adam (
Parameter Group 0
    amsgrad: False
    betas: (0.9, 0.999)
    capturable: False
    eps: 1e-08
    foreach: None
    lr: 0.007163636363636364
    maximize: False
    weight_decay: 0
)
#####################################################################################
Run : 11-08-2022_10-55-38
Batch size : 10
epochs : 100
final_train_loss : 0.7415633052587509
final_train_accuracy : 0.3250000054637591
final_test_loss : 0.6591673195362091
final_test_accuracy : 0.4000000059604645
model : IrisClassifier(
  (layer1): Linear(in_features=4, out_features=50, bias=True)
  (layer2): Linear(in_features=50, out_features=50, bias=True)
  (layer3): Linear(in_features=50, out_features=3, bias=True)
  (ReLU): ReLU()
)
optimizer : Adam (
Parameter Group 0
    amsgrad: False
    betas: (0.9, 0.999)
    capturable: False
    eps: 1e-08
    foreach: None
    lr: 0.05
    maximize: False
    weight_decay: 0
)
#####################################################################################
Run : 11-08-2022_10-59-59
Batch size : 10
epochs : 100
final_train_loss : 0.07754167821258307
final_train_accuracy : 0.9749999990065893
final_test_loss : 0.036129810847342014
final_test_accuracy : 1.0
model : IrisClassifier(
  (layer1): Linear(in_features=4, out_features=50, bias=True)
  (layer2): Linear(in_features=50, out_features=50, bias=True)
  (layer3): Linear(in_features=50, out_features=3, bias=True)
  (ReLU): ReLU()
)
optimizer : Adam (
Parameter Group 0
    amsgrad: False
    betas: (0.9, 0.999)
    capturable: False
    eps: 1e-08
    foreach: None
    lr: 0.001
    maximize: False
    weight_decay: 0
)
#####################################################################################
Run : 11-08-2022_11-28-21
Batch size : 10
epochs : 100
final_train_loss : 0.7415633052587509
final_train_accuracy : 0.3250000054637591
final_test_loss : 0.695787787437439
final_test_accuracy : 0.36666667461395264
model : IrisClassifier(
  (layer1): Linear(in_features=4, out_features=50, bias=True)
  (layer2): Linear(in_features=50, out_features=50, bias=True)
  (layer3): Linear(in_features=50, out_features=3, bias=True)
  (ReLU): ReLU()
)
optimizer : Adam (
Parameter Group 0
    amsgrad: False
    betas: (0.9, 0.999)
    capturable: False
    eps: 1e-08
    foreach: None
    lr: 0.05
    maximize: False
    weight_decay: 0
)
#####################################################################################
Run : 11-08-2022_11-28-43
Batch size : 10
epochs : 100
final_train_loss : 0.07754167821258307
final_train_accuracy : 0.9749999990065893
final_test_loss : 0.027877289685420692
final_test_accuracy : 1.0
model : IrisClassifier(
  (layer1): Linear(in_features=4, out_features=50, bias=True)
  (layer2): Linear(in_features=50, out_features=50, bias=True)
  (layer3): Linear(in_features=50, out_features=3, bias=True)
  (ReLU): ReLU()
)
optimizer : Adam (
Parameter Group 0
    amsgrad: False
    betas: (0.9, 0.999)
    capturable: False
    eps: 1e-08
    foreach: None
    lr: 0.001
    maximize: False
    weight_decay: 0
)
#####################################################################################
Run : 11-08-2022_11-30-54
Batch size : 10
epochs : 100
final_train_loss : 0.07754167821258307
final_train_accuracy : 0.9749999990065893
final_test_loss : 0.027877289685420692
final_test_accuracy : 1.0
model : IrisClassifier(
  (layer1): Linear(in_features=4, out_features=50, bias=True)
  (layer2): Linear(in_features=50, out_features=50, bias=True)
  (layer3): Linear(in_features=50, out_features=3, bias=True)
  (ReLU): ReLU()
)
optimizer : Adam (
Parameter Group 0
    amsgrad: False
    betas: (0.9, 0.999)
    capturable: False
    eps: 1e-08
    foreach: None
    lr: 0.001
    maximize: False
    weight_decay: 0
)
#####################################################################################
